api/mlruns/1/models/m-4bfad0acd5f64255ae59ffc7a3070215/artifacts/model.onnx (onnx, 58257 bytes, 44 tensors)

onnx::Conv_622 f4 [32]
-0.3198213 -7.777185e-29 1.6482122e-28 0.13195845 1.8697315e-27 4.1138357e-29 -5.1154856e-26 0.1807206
-0.04621062 -5.013474e-28 -5.4736263e-28 7.1744905e-29 -2.9831249e-27 -3.781091e-27 -6.612393e-28 1.0525185e-28
-7.0032783e-29 -0.2067766 1.3087386e-27 -0.123633966 -6.06807e-28 0.14744017 1.8425874e-28 3.241993e-29
-2.9873825e-29 6.8603758e-28 -1.9173183e-26 -3.5178088e-16 6.820215e-29 0.15789254 -3.6410322e-07 -1.5215653e-27
00000000: 9ebf a3be d12c c590 8bef 5011 1e20 073e
00000010: a922 1413 a498 5010 7c4e 7d95 d20e 393e
00000020: 5947 3dbd 22e2 1e92 5577 2d92 1be5 b510
00000030: f658 6c93 d1c8 9593 1b8e 5192 2e6c 0511
00000040: e08d b190 3fbd 53be bf60 cf12 ce33 fdbd
00000050: 084e 4092 8efa 163e 6193 6911 7a63 2410
00000060: 717a 1790 fb69 5912 cbe1 bd94 b2c9 caa5
00000070: bae9 ac10 95ae 213e f779 c3b4 051a f192

onnx::Conv_625 f4 [32]
-0.3112284 -3.053168e-28 -3.3079193e-28 0.16724911 6.6611364e-28 -3.521481e-28 -2.7416217e-26 -0.009516418
-0.5254469 -3.6723972e-28 -3.822689e-28 -2.1371794e-28 2.913813e-27 -3.3951595e-27 -4.5906206e-28 -5.388132e-28
-2.1573803e-28 -0.3647237 -8.790684e-28 -0.35766733 7.1185866e-28 -0.43840873 -1.2570612e-28 -1.9322366e-28
-6.571292e-28 -1.5515678e-27 -7.5124147e-28 -1.0931327e-16 -2.7300594e-28 0.38053608 2.573329e-07 3.0656654e-28
00000000: 5459 9fbe 7c84 c191 0faa d191 5a43 2b3e
00000010: 8f19 5312 4c33 df91 2fc2 0795 c0ea 1bbc
00000020: b083 06bf 0dc4 e891 ad4a f291 b875 8791
00000030: 26db 6613 027f 8693 8a7b 1192 b8c1 2a92
00000040: 7fbd 8891 11bd babe 404b 8b92 2c20 b7be
00000050: d698 6112 1c77 e0be f859 1f91 aaf0 7491
00000060: a840 5092 11db f592 f313 6e92 2a0f fca4
00000070: bf09 ad91 a0d5 c23e 9127 8a34 444f c211

onnx::Conv_628 f4 [16]
-0.119197756 0.07146075 -0.056019854 -0.21162781 1.0762438 -1.8967519 0.20534082 0.13029823
0.36413622 0.082947314 -0.10699165 -0.028494237 0.28253335 -0.060752805 -0.27925512 0.013732679
00000000: f41d f4bd 045a 923d 1375 65bd f6b4 58be
00000010: 5bc2 893f c4c8 f2bf dd44 523e e66c 053e
00000020: 1070 ba3e 48e0 a93d 701e dbbd bf6c e9bc
00000030: 36a8 903e efd7 78bd 87fa 8ebe 08ff 603c

onnx::Conv_631 f4 [96]
-1.2859722e-26 -6.550534e-27 -4.83571e-28 1.1438221e-28 -1.1562671e-27 0.13280983 1.5447128e-28 0.11426243
-1.1821629e-27 2.6279244e-28 -6.718057e-26 0.22550893 0.16221753 0.03116026 1.6389741e-28 0.13672796
0.110684246 0.25427052 -0.03332973 -9.069394e-30 -6.6718003e-28 1.8832889e-28 -1.3238787e-27 -1.1412652e-28
-1.8308506e-17 -8.611289e-25 4.0891686e-28 0.26253876 0.06921082 -2.508983e-27 -1.2636511e-27 1.3355587e-29
0.122181125 -0.33538723 -0.00019866783 9.118783e-29 0.0906395 0.11545305 0.11516985 0.16732845
-0.041734036 -4.8756584e-27 0.12898025 -5.5992845e-28 -8.845433e-28 -6.910414e-28 -3.251139e-30 -1.9235676e-31
-2.6530563e-27 -7.94821e-30 -5.334716e-28 -6.9053476e-18 -2.0908674e-26 0.13464665 -2.7475432e-27 6.8849895e-29
0.055013567 2.595866e-28 -3.8700678e-26 -6.8726155e-27 -5.274169e-28 -4.5595255e-28 0.27324605 0.26834947
-1.8238439e-28 2.945961e-28 -2.8896636e-27 -5.0524274e-29 0.13435526 5.14643e-29 -8.7612655e-26 0.082755096
3.1771097e-29 -6.325447e-28 0.13166387 -2.046199e-24 0.045155145 -0.20527431 -5.009428e-28 -1.7752288e-27
-3.800674e-29 1.669942e-22 -5.1136124e-29 4.545506e-22 -8.3946886e-24 -3.7478065e-28 -5.9552075e-28 -3.1016336e-28
-0.0022637974 -0.026449528 2.5834542e-29 2.7409066e-30 0.14079127 0.11128274 2.2263844e-28 -0.25068852
00000000: 8ab6 7e94 27bf 0194 f13f 1992 26ff 1011
00000010: c437 b792 4dff 073e ccd0 4311 6c02 ea3d
00000020: 3952 bb92 8390 a611 bf54 a695 d0eb 663e
00000030: 5a1c 263e cd43 ff3c c0c3 4f11 6a02 0c3e
00000040: 6cae e23d bf2f 823e c184 08bd fcf2 378f
00000050: 1370 5392 38bc 6e11 e6c6 d192 2cac 1091
00000060: bddd a8a3 d540 8597 4797 0112 7b6b 863e
00000070: 67be 8d3d 39c8 4693 c73b c892 1671 870f
00000080: 193a fa3d e0b7 abbe 7d51 50b9 4930 e710
00000090: 34a1 b93d a672 ec3d 2cde eb3d 2658 2b3e
000000a0: 4ff1 2abd 0d25 c193 6613 043e cb72 3192
000000b0: 5729 8c92 f0ff 5a92 c2e1 838e 7fb1 798c
000000c0: 6032 5293 7735 218f 5c10 2992 2ac3 fea2
000000d0: c911 cf94 d0e0 093e ccae 5993 238e ae10
000000e0: e855 613d 5688 a411 f0a2 3f95 4d20 0894
000000f0: 2425 2792 447f 1092 e8e6 8b3e 1a65 893e
00000100: 1e33 6791 f3b8 ba11 57f1 6493 2118 8090
00000110: 6d94 093e 3e7a 8210 1eeb d895 817b a93d
00000120: 3e19 2110 1f76 4892 e5d2 063e 2651 1e98
00000130: 9af4 383d 6e33 52be 4fc1 1e92 eba5 0c93
00000140: 92b7 4090 34e2 491b 3ea5 8190 2661 091c
00000150: 7c60 2299 a38b ed91 62ba 3c92 e296 c491
00000160: 385c 14bb aeac d8bc 27ff 0210 675e 5e0e
00000170: 962b 103e 35e8 e33d 271d 8d11 3f5a 80be

onnx::Conv_634 f4 [96]
-7.837994e-27 -2.3714798e-27 -4.145111e-28 -2.8584513e-28 7.8165504e-28 0.12813635 -2.2163997e-28 -0.042636763
-2.5780137e-28 3.6681527e-28 -6.4104175e-26 0.12880605 0.19744523 0.24975738 -2.110013e-28 -0.052632004
0.20618473 0.077119656 -0.016342402 -2.5612653e-28 -1.4004241e-28 -4.098361e-28 8.8539015e-28 -1.8293874e-28
-6.522112e-18 -9.022354e-25 -4.7331914e-28 0.09755155 0.2553472 -2.0529795e-27 -7.752575e-28 -1.7803041e-28
0.07391909 0.21133994 -5.7730565e-05 -3.2190783e-28 -0.055642366 0.2347594 0.61497915 0.29489934
-0.0068489164 3.324443e-27 0.122132 -6.3883005e-28 -8.54007e-28 -3.9144567e-28 -3.0525814e-28 -2.1831776e-28
-9.916188e-28 -2.1779116e-28 -2.4072735e-28 -1.23432015e-17 -1.4137859e-26 -0.024186775 -2.9807456e-27 -1.934858e-28
0.25422055 3.4031327e-28 -3.5414656e-26 -5.145391e-26 1.5822213e-28 2.348013e-28 0.2272012 0.17181225
-1.859657e-28 -4.9223736e-28 -1.1909742e-27 -6.565081e-27 -0.18324164 -1.2961009e-28 -3.6173448e-26 0.09806709
-1.7836047e-28 -4.360983e-28 0.063870594 -2.5042289e-24 0.03835846 -0.2541179 -2.6107374e-28 -9.145937e-28
-8.158443e-29 -2.212031e-21 -2.194264e-28 -1.3988519e-21 -1.6673404e-24 -2.2441193e-28 1.7330237e-28 -1.0272974e-27
-0.015851222 0.1761547 -1.6669943e-28 -3.7076742e-28 -0.30447975 0.020596601 -8.2971794e-29 -0.7928487
00000000: 5a3f 1b94 53e3 3b93 235d 0392 062d b591
00000010: 64b7 7712 2d36 033e 247b 8c91 e3a3 2ebd
00000020: aa66 a391 2e7f e811 d9b6 9e95 bce5 033e
00000030: 152f 4a3e 66c0 7f3e ebbc 8591 a894 57bd
00000040: 1722 533e e9f0 9d3d 80e0 85bc e856 a291
00000050: 5c86 3191 dbe1 0192 b14b 8c12 04e7 6791
00000060: 9b9f f0a2 3a9d 8b97 3600 1692 1bc9 c73d
00000070: debc 823e 5fa7 2293 5cb0 7592 2cae 6191
00000080: e462 973d 7f69 583e b923 72b8 8808 cc91
00000090: 40e9 63bd c564 703e 466f 1d3f 0cfd 963e
000000a0: e06c e0bb dbb1 8313 5820 fa3d 0d74 4a92
000000b0: a452 8792 b11b f891 f77a c191 1560 8a91
000000c0: d620 9d92 a30a 8a91 3f94 9891 1fb1 63a3
000000d0: bb03 8c94 5823 c6bc b428 6c93 bb45 7591
000000e0: 3229 823e fcb2 d711 695d 2f95 94c9 7e95
000000f0: 0492 4811 b0d2 9411 6ea7 683e 8def 2f3e
00000100: 52bd 6b91 0aff 1b92 a7b7 bc92 ea08 0294
00000110: b2a3 3bbe e14c 2491 4b1f 3395 66d7 c83d
00000120: 4819 6291 7f34 0a92 96ce 823d 5dc1 4198
00000130: c31d 1d3d be1b 82be a379 a591 54ec 9092
00000140: 53d7 ce90 e722 279d f813 8b91 7663 d39c
00000150: 1401 0198 eb3c 8e91 d6af 5b11 22c8 a292
00000160: 6cda 81bc e661 343e 0f51 5391 7400 eb91
00000170: c5e4 9bbe 34ba a83c c65b d290 22f8 4abf

onnx::Conv_637 f4 [24]
0.0019861427 -0.3926449 0.13521966 -0.16814023 0.41551805 -0.32645097 -0.07963168 -0.2835521
-0.11780703 -0.02866923 0.14286679 -0.040106624 -0.040887132 -0.3338234 0.308779 -0.24106447
-0.4161927 0.17648359 0.19934379 -0.005091581 0.18397304 0.1530751 -0.14292797 -0.17921959
00000000: f229 023b c108 c9be 0677 0a3e f42c 2cbe
00000010: c8be d43e 9524 a7be ef15 a3bd be2d 91be
00000020: d044 f1bd bcdb eabc ac4b 123e d846 24bd
00000030: 4479 27bd e7ea aabe 4818 9e3e 9bd9 76be
00000040: 3617 d5be 1db8 343e c720 4c3e 47d7 a6bb
00000050: 6e63 3c3e b8bf 1c3e b65b 12be 5785 37be

onnx::Conv_640 f4 [144]
-5.03833e-28 0.10605378 -6.922721e-28 2.7351932e-28 5.3459536e-29 0.044566803 9.17361e-28 -1.5841188e-29
-3.6851746e-29 -6.3309434e-28 0.011115213 -2.0371959e-29 -3.0806615e-27 -7.8392585e-28 5.60434e-29 -6.744608e-28
0.103744216 -2.9642953e-27 -1.3225378e-27 8.905443e-28 0.13012794 0.07361925 -0.22012329 -5.521975e-27
0.014508208 2.6608667e-28 1.626211e-27 0.07392005 0.03901291 -5.066577e-28 0.037457407 -3.9994685e-28
0.09070483 -6.3863317e-28 -8.75974e-28 -0.16974479 0.07931512 0.061038483 2.3029608e-28 -2.1678603e-27
-4.844648e-28 -3.8783759e-28 0.111983344 0.13161932 -4.118815e-28 0.032779567 -9.8576576e-29 1.1468441e-28
0.072939016 -2.1193245e-27 0.08822779 -5.6934023e-28 -3.0051481e-28 -0.20909882 2.6101755e-27 -3.1501816e-27
7.486329e-28 -0.077221036 0.024477556 -1.2214564e-26 0.11044784 0.052469943 0.09925541 -4.499861e-28
-8.837593e-27 -0.073140256 0.06606233 -0.030574042 4.008043e-27 -6.7307405e-28 -0.021074161 -5.491566e-29
5.8634403e-28 -0.0052881106 -6.948371e-21 0.066106685 -6.659553e-26 -1.766722e-24 1.2857997e-28 -1.1784677e-27
0.08659362 0.07752886 0.20383401 0.07048567 0.13259342 -8.0251854e-28 -9.604798e-28 0.04986989
0.11834042 -1.1822827e-28 2.6162234e-28 0.13646679 -5.4433386e-28 0.07017911 0.09800069 0.14992325
-1.4788927e-27 0.060293578 0.09116397 0.05285895 -1.2856845e-27 -0.014431336 -6.660089e-28 0.047549855
-1.1062953e-26 2.2407675e-28 -1.8515806e-28 -0.004155173 2.2510387e-27 -1.9407038e-25 0.11281209 0.029545955
0.06637403 -4.7171594e-27 0.057726253 2.7948457e-28 0.038859267 0.021385634 0.069289364 -1.9110662e-25
-2.2028571e-27 -1.5730367e-28 0.094317995 -7.142036e-28 -0.009554058 0.18392979 0.14433576 -3.9140888e-29
1.3210753e-27 -1.0576118e-27 -0.19616608 3.4016285e-28 2.2432484e-29 -7.429878e-29 0.1395679 -3.425126e-27
0.038476124 0.06190241 -1.4716687e-29 -3.315828e-26 0.12208418 -7.8604e-27 -4.081409e-28 1.7507021e-28
00000000: caab 1f92 b932 d93d c963 5b92 0c5d ad11
00000010: 3989 8710 ae8b 363d 955c 9112 13a6 a08f
00000020: 4ddc 3a90 b7a2 4892 951c 363c a198 ce8f
00000030: 3d13 7493 9f6f 7892 3f16 8e10 c3be 5592
00000040: d977 d43d 0ddb 6a93 8290 d192 c51c 8d12
00000050: 4240 053e b0c5 963d 0068 61be 7bbf da93
00000060: d6b3 6d3c 08a7 a811 7ad7 0013 6563 973d
00000070: 00cc 1f3d f590 2092 f06c 193d 167f fd91
00000080: 74c3 b93d 1464 4a92 bacd 8a92 94d1 2dbe
00000090: f76f a23d 7d03 7a3d adf7 9111 6ec1 2b93
000000a0: 7488 1992 3fd2 f591 8657 e53d 37c7 063e
000000b0: cc87 0292 de43 063d dbeb f990 3861 1111
000000c0: 0d61 953d 02e9 2793 c6b0 b43d 5e6e 3492
000000d0: 5179 be91 001e 56be a6cc 4e13 4695 7993
000000e0: 5140 6d12 1026 9ebd 2885 c83c 33ef 7194
000000f0: 7a32 e23d b9ea 563d 6c46 cb3d 369b 0e92
00000100: ec0b 2f94 8fca 95bd b04b 873d 6a76 fabc
00000110: 63c6 9e13 414e 5592 b8a3 acbc 4d3a 8b90
00000120: e1d1 3912 e347 adbb 4340 039e f162 873d
00000130: efe1 a495 89b1 0898 96fe 2211 54bc ba92
00000140: ff57 b13d 73c7 9e3d ddb9 503e ca5a 903d
00000150: 92c6 073e 0a54 7e92 b031 9892 5f44 4c3d
00000160: 765c f23d 44df 1591 a7d2 a511 f3bd 0b3e
00000170: 9c81 2c92 11ba 8f3d 96b4 c83d 7b85 193e
00000180: 0457 ea92 66f6 763d 2db4 ba3d a082 583d
00000190: 8fb9 cb92 6971 6cbc 1011 5392 a3c3 423d
000001a0: d61f 5b94 8806 8e11 3ab7 6a91 1e28 88bb
000001b0: 7d58 3213 5c3f 7096 060a e73d 5c0a f23c
000001c0: 1cef 873d aedd ba93 5d72 6c3d f724 b111
000001d0: e52a 1f3d ed30 af3c 95e7 8d3d 1b94 6c96
000001e0: 4087 2e93 f667 4791 cb29 c13d 1457 6292
000001f0: a088 1cbc 1758 3c3e c1cc 133e c777 4690
00000200: 2e55 d112 d595 a792 c3df 48be 949a d711
00000210: 0f7e e30f aa5e bc90 e3ea 0e3e e7ae 8793
00000220: 2499 1d3d 628d 7d3d b43e 958f 1d31 2495
00000230: 4507 fa3d f7b0 1b94 5358 0192 88ed 5d11

onnx::Conv_643 f4 [144]
-4.864965e-28 -0.021471616 -4.9638023e-28 -3.376848e-28 -6.179637e-29 0.057768844 -9.378642e-28 -3.372337e-28
-2.5154082e-28 -1.8823582e-28 0.28372106 -2.158096e-28 -5.2568633e-28 -2.1965344e-28 -2.7394895e-28 8.309919e-28
0.036673356 8.101619e-28 2.2634814e-28 6.0269817e-27 0.08242293 0.13517648 0.27709502 -3.0731831e-27
-0.00335972 -2.5464258e-28 5.179428e-28 0.14894713 0.0440432 -4.7124723e-28 0.029716745 -8.0433546e-28
0.20430441 -2.7335157e-28 -4.0255557e-28 0.008229338 0.19967543 0.1352344 -2.2571779e-28 -2.210379e-27
-2.4389914e-28 -1.2150013e-28 0.3052814 0.66021127 -2.625507e-28 0.001962874 -1.5160427e-28 -1.8705675e-28
-0.08524996 -2.2099545e-27 0.13354933 -2.645118e-28 -1.3781359e-28 -0.006059289 -3.0936983e-27 -2.8837692e-27
-1.647553e-28 -0.0072164536 -0.11238428 -2.5019126e-27 -0.050667547 0.02724848 0.16986026 -4.9352927e-28
-7.727756e-27 -0.003994096 0.083563 0.023323605 2.3357914e-28 -2.8383438e-28 -0.054983176 -1.9669786e-28
-4.2104305e-28 0.055417895 -4.9066855e-21 0.008746162 -2.5138153e-26 -1.1929217e-24 -8.997049e-28 3.5959606e-28
0.23525068 0.19783977 -0.15849741 0.05711422 0.008720547 -2.565564e-28 -7.9014044e-28 0.043039467
0.0368527 -3.1311e-28 -1.5673932e-28 -0.028064884 -4.2252953e-28 0.20009437 -0.21409108 0.14102729
-1.6214165e-27 0.018416539 0.18528885 0.03264416 3.8462217e-28 0.05426953 -9.768396e-28 0.124032065
-4.689879e-27 -3.4016023e-28 -7.57793e-29 -0.0065309256 -1.9285561e-27 5.1714196e-26 -0.13204624 -0.015972875
0.061311822 -3.9327917e-27 0.08552235 -3.5704392e-28 0.24985 0.025558375 -0.08231214 -1.3167053e-26
-6.025757e-28 6.4769886e-28 0.009027123 -6.177215e-28 0.14394815 0.050602425 0.25117624 -1.5338023e-28
3.3588018e-28 -5.28661e-28 -0.1826627 2.949864e-28 -2.602304e-28 -3.158618e-28 0.16148533 -3.8879788e-27
0.11971816 0.066796556 -2.03796e-28 -3.2633416e-26 -0.07806672 -6.0219265e-27 2.6375177e-28 -3.6476877e-28
00000000: 492d 1a92 3ee5 afbc 264f 1d92 7e08 d691
00000010: 23ac 9c90 069f 6c3d 4b9c 9492 4cbf d591
00000020: d56e 9f91 049e 6e91 e343 913e 1cc9 8891
00000030: be98 2692 cf38 8b91 c2a2 ad91 09ad 8312
00000040: cd36 163d 1260 8012 1677 8f11 dbc0 ee13
00000050: 5acd a83d b46b 0a3e 66df 8d3e 8f7b 7393
00000060: c02e 5cbb 1f66 a191 8324 2412 9985 183e
00000070: a466 343d 1e58 1592 8870 f33c 72e7 7e92
00000080: 2d35 513e d441 ad91 6026 ff91 58d4 063c
00000090: b777 4c3e e37a 0a3e ce10 8f91 d01f 2f93
000000a0: e696 9a91 0c05 1a91 d84d 9c3e 9b03 293f
000000b0: 4969 a691 90a3 003b 662e 4091 631f 6d91
000000c0: 8897 aebd 3417 2f93 28c1 083e 7ea7 a791
000000d0: 11b3 2e91 008d c6bb a81b 7593 ca79 6493
000000e0: 27da 5091 0078 ecbb bb29 e6bd d138 4693
000000f0: c688 4fbd 3438 df3c d9ef 2d3e da67 1c92
00000100: 6110 1994 e8e0 82bb 1423 ab3d 2511 bf3c
00000110: 620c 9411 c3e6 b391 0a36 61bd 1b58 7991
00000120: 126f 0592 e0fd 623d 8d5e b99d 104c 0f3c
00000130: caf4 f894 7f98 b897 5e90 8e92 cceb e311
00000140: 8ee5 703e 8296 4a3e 254d 22be 9af0 693d
00000150: a0e0 0e3c a89c a291 cf67 7a92 274a 303d
00000160: dbf2 163d 0175 c691 d1b0 4691 54e8 e5bc
00000170: abe7 0592 8ae5 4c3e b13a 5bbe 7569 103e
00000180: 3c76 0093 48de 963c 5cbc 3d3e e2b5 053d
00000190: 84c8 f311 ba49 5e3d 52c9 9a92 8604 fe3d
000001a0: 06c9 b993 279a d791 941f c090 6001 d6bb
000001b0: c4cb 1893 c409 8015 2137 07be 8cd9 82bc
000001c0: 1b22 7b3d 3fcb 9b93 5826 af3d b04d e291
000001d0: aed8 7f3e cc5f d13c 4493 a8bd 7266 8294
000001e0: c0f6 3e92 9343 4d12 80e6 133c 86c3 4392
000001f0: 2567 133e 7d44 4f3d 2c9a 803e bb6e 4291
00000200: ade3 d411 138a 2792 ee0b 3bbe 48f8 ba11
00000210: ccf0 a491 8233 c891 695c 253e ca04 9a93
00000220: cb2e f53d a2cc 883d cb2b 8191 c597 2195
00000230: 72e1 9fbd 978d ee93 2c2c a711 1e33 e791

onnx::Conv_646 f4 [24]
0.0056781527 -0.26064107 -0.07248082 0.49817127 -0.56357926 0.06934687 -0.36276126 0.107426174
-0.022012709 -0.019699067 0.118590295 -0.31872705 -0.36209932 -0.01575094 0.17051086 0.0829555
-0.32086557 0.1615088 -0.013397621 -0.1787622 0.33833498 -0.10054585 -0.74226147 0.07293346
00000000: cc0f ba3b bf72 85be d370 94bd 4e10 ff3e
00000010: bb46 10bf bb05 8e3d d8bb b9be 4102 dc3d
00000020: ff53 b4bc f05f a1bc 78df f23d 3130 a3be
00000030: 1565 b9be 1e08 81bc 669a 2e3e 93e4 a93d
00000040: 7e48 a4be 9062 253e b281 5bbc 700d 37be
00000050: 3e3a ad3e fcea cdbd d904 3ebf 235e 953d

onnx::Conv_649 f4 [144]
-2.638323e-27 -0.025189793 0.017074509 -8.899994e-28 5.0204184e-28 -0.06390025 1.0109525e-28 0.06317063
0.037033122 -6.3284946e-28 -1.4498696e-25 -1.0196742e-27 0.02348757 0.081424445 0.027093453 -4.6939598e-28
-8.505947e-28 -0.0037205047 -7.052132e-28 0.19306724 0.023058318 0.012918642 -0.1758503 0.03206867
0.07785208 0.028472768 -0.045611974 4.1709353e-29 -0.21320273 0.008038127 -4.5834326e-28 -0.00023074177
0.14986362 5.626746e-29 -2.4927646e-27 -0.0006714604 -0.039403573 0.02641797 -1.9831042e-28 -1.6115269e-27
0.08756526 -1.8017252e-27 -0.013476738 -1.1059326e-27 1.5117283e-28 4.0305286e-30 2.9487822e-28 0.08508546
-0.024994088 0.11538538 -7.095466e-29 0.009725166 1.8118341e-28 0.13987792 0.09180908 0.14707272
-4.1617454e-28 0.09351638 0.0063218786 -8.175283e-28 0.052576203 -2.944594e-28 -0.026358476 -4.1913093e-27
0.14415456 0.087629594 -0.004419599 -9.642268e-28 -4.72796e-28 -0.061487764 0.09933024 2.3315664e-28
-2.4775026e-29 -1.547173e-29 0.060146987 -1.0091062e-26 -6.081721e-28 -0.037631273 5.811433e-29 -4.131389e-27
-0.01924901 -2.3878713e-29 0.016964227 0.012186724 -6.228085e-29 -9.285303e-28 1.7039609e-28 5.471782e-29
0.025061091 -1.1157237e-28 -0.02366778 7.00478e-29 -9.097829e-27 2.5398276e-29 -5.06265e-28 0.12612645
-0.008040743 0.10143675 2.665963e-29 -6.0505343e-28 0.09938423 -1.3565e-26 -1.2366567e-28 -7.078021e-29
-0.13746351 -1.19416824e-26 0.090235375 0.019385977 0.026904415 -0.03226408 1.6787701e-29 -0.14759938
-0.018635232 0.19464558 -0.03660299 -1.4820063e-26 -4.4773196e-28 0.06848902 -1.2093501e-27 -2.440841e-27
0.05869427 -5.5787613e-28 -8.626817e-28 0.15925527 6.4358223e-28 0.09576759 0.04559413 0.18394232
-2.3188462e-26 4.437474e-29 -5.2182086e-27 0.15772085 7.614778e-29 0.11588044 -7.6770794e-28 -8.203513e-28
-6.3016635e-28 -4.4253383e-27 0.117569655 0.023910036 -1.1402433e-28 0.0326882 -3.8730567e-28 -2.2025042e-29
00000000: 8c07 5193 d35a cebc d7df 8b3c aa06 8d92
00000010: 791a 1f12 22de 82bd 4927 0011 9a5f 813d
00000020: 0bb0 173d d98e 4892 347c 3396 e692 a192
00000030: 0169 c03c dcc1 a63d 17f3 dd3c edc1 1492
00000040: 38c8 8692 b6d3 73bb b17d 5f92 6bb3 453e
00000050: cce4 bc3c b6a8 533c 1a12 34be 705a 033d
00000060: e970 9f3d b93f e93c 9fd3 3abd d67d 5310
00000070: d151 5abe 59b2 033c 3941 1192 46f3 71b9
00000080: d975 193e aba7 8e10 467f 4593 f204 30ba
00000090: a465 21bd 806a d83c 6963 7b91 4c5b ff92
000000a0: 6a55 b33d 54bf 0e93 89cd 5cbc f53d af92
000000b0: 63a2 3f11 677f a30e bae6 ba11 4941 ae3d
000000c0: 67c0 ccbc 2c4f ec3d 35e4 b390 4d56 1f3c
000000d0: 61ad 6511 283c 0f3e 6606 bc3d 3b9a 163e
000000e0: 17e4 0392 8485 bf3d c327 cf3b e38a 8192
000000f0: 255a 573d c5a2 ba91 bbed d7bc ed08 a693
00000100: 419d 133e 2577 b33d 49d2 90bb b0c9 9892
00000110: c5d5 1592 98da 7bbd a76d cb3d d4c7 9311
00000120: a53f fb8f e8e6 9c8f b05c 763d c3df 4794
00000130: c8bc 4092 4023 1abd 5b56 9310 43a9 a393
00000140: 1ab0 9dbc af28 f28f 90f8 8a3c d3aa 473c
00000150: 95e6 9d90 aa21 9392 b100 5811 e5b9 8a10
00000160: eb4c cd3c 4e6f 0d91 efe2 c1bc 9f97 b110
00000170: 7933 3494 d9c8 0010 1971 2092 4b27 013e
00000180: 52bd 03bc 12be cf3d 2e2e 0710 c4bf 3f92
00000190: f689 cb3d 5c57 8694 cec3 1c91 fc72 b390
000001a0: 3cc3 0cbe 8687 6c94 53cd b83d 57cf 9e3c
000001b0: a666 dc3c 5727 04bd 5d3f aa0f 4b24 17be
000001c0: eaa8 98bc 2c51 473e 04ed 15bd 53c5 9294
000001d0: 55e4 0d92 f943 8c3d 11a1 bf92 2362 4193
000001e0: 6769 703d 4acc 3092 87b2 8892 d013 233e
000001f0: 98f5 4b12 cc21 c43d e9c0 3a3d 605b 3c3e
00000200: bca5 e594 b501 6110 ecb6 ce93 9381 213e
00000210: bc0e c110 b952 ed3d de4b 7392 67fd 8192
00000220: 2bb5 4792 434e af93 5cc8 f03d fbde c33c
00000230: 038b 1091 10e4 053d f07b f591 475c df8f

onnx::Conv_652 f4 [144]
-6.2999475e-28 -0.011421964 -0.0031622648 -9.529756e-28 -1.37961e-27 -0.0052756667 -5.2748843e-28 0.46175876
0.24255422 -5.6553315e-28 -3.975866e-26 -6.3675057e-28 0.0757698 0.09651168 0.28519535 -4.792588e-28
-5.051473e-28 0.0029684827 -4.637091e-28 0.6214243 0.31371266 0.32887623 -0.38203347 0.020445496
0.01234005 0.17191607 0.008580953 -1.3456929e-28 -0.28559926 0.2100166 -2.9293965e-28 0.328651
-0.069352835 -2.5928455e-28 -2.0295835e-27 -0.0244025 0.0027726665 0.2127091 -4.195983e-28 -2.4567266e-27
0.4474445 5.100033e-28 -0.045220323 -7.5862607e-28 -1.5847403e-28 -1.4476225e-28 -3.54957e-28 0.2744267
-0.043368228 0.014213111 -7.5649666e-28 0.17807043 -4.9941275e-28 -0.26519752 0.02436469 0.009689526
-3.7170135e-28 0.042235807 0.3263189 -4.226326e-28 0.18193775 -1.9075282e-28 0.3837322 -2.2943642e-27
0.539181 0.2776854 -0.018303037 -7.440548e-28 -1.9102343e-28 0.004330311 -0.01952514 -5.4918504e-28
-1.8590568e-28 -3.8493738e-28 0.38348913 9.033607e-27 -6.3153034e-28 0.32027987 -1.7244205e-28 2.6652317e-27
0.39076608 -1.5687558e-28 0.057493947 -0.0039035827 -1.5087003e-28 -5.783015e-28 -4.617924e-29 -1.7329264e-28
0.24858785 -2.8028133e-28 -0.024418287 -2.037183e-28 -7.430519e-27 -1.5436171e-28 -5.5224905e-28 0.4423325
-0.040610857 0.2428264 -1.6111848e-28 -2.1496513e-28 -0.05393253 -5.841195e-27 -1.3384351e-28 -1.9469848e-28
-0.041774184 -9.088118e-27 0.23173468 -0.01582934 0.18694732 0.21538402 -2.0153937e-28 -0.0013661943
0.3993849 1.1913352 0.006576471 -1.1645306e-26 -5.2685157e-28 -0.025761336 -8.649904e-28 -1.3096259e-27
0.046046853 -3.4998675e-28 4.3846496e-28 0.17037612 -9.647435e-28 0.37562895 0.2554576 0.13069221
-1.05076904e-26 -1.3729987e-28 -3.4006307e-27 -0.66639453 -1.4718812e-28 0.05164969 -3.194604e-28 1.1961544e-28
-5.337411e-28 -2.9804076e-27 0.5333707 0.31068265 -1.5481611e-28 -0.027399048 -6.1173034e-28 -1.9302974e-28
00000000: 3fa7 4792 3023 3bbc 003e 4fbb 4801 9792
00000010: a19b da92 80df acbb f22a 2792 a56b ec3e
00000020: 2260 783e 8039 3392 17e0 4495 58cb 4992
00000030: 322d 9b3d eaa7 c53d 2005 923e 18e2 1792
00000040: 6b16 2092 e08a 423b 8df4 1292 aa15 1f3f
00000050: f29e a03e 7762 a83e e499 c3be 507d a73c
00000060: ec2d 4a3c c40a 303e 2097 0c3c 3b96 2a91
00000070: 113a 92be 970e 573e 2dac b991 f244 a83e
00000080: dc08 8ebd 5357 a491 d8cc 2093 c0e7 c7bc
00000090: a0b5 353b 6ad0 593e dcf9 0492 56a4 4293
000000a0: 7217 e53e 62a0 2112 f238 39bd 0f6b 7092
000000b0: c3e3 4891 0982 3791 11fb e091 a881 8c3e
000000c0: e2a2 31bd 1cde 683c 4dbe 6f92 1858 363e
000000d0: 2d45 1e92 f8c7 87be 7598 c73c d1c0 1e3c
000000e0: fe97 eb91 74ff 2c3d 4513 a73e 08f0 0592
000000f0: e44d 3a3e d4ce 7191 8c78 c43e 3cc7 3593
00000100: c407 0a3f c82c 8e3e 40f0 95bc e6cc 6b92
00000110: a626 7291 48e5 8d3b 30f3 9fbc 2f0b 2e92
00000120: d8a9 6b91 a9fb f391 b058 c43e d4ed 3214
00000130: d423 4892 b9fb a33e a598 5a91 5229 5313
00000140: 7e12 c83e 09dd 4691 c67e 6b3d 40d3 7fbb
00000150: 2040 3f91 6445 3792 1528 6a90 adac 5b91
00000160: d08d 7e3e 3fa6 b191 dc08 c8bc 2f1f 8191
00000170: 352d 1394 3dad 4391 c403 2f92 6879 e23e
00000180: 9257 26bd 7ca7 783e f03d 4c91 1640 8891
00000190: 5be8 5cbd c164 e793 b4aa 2991 45cf 7691
000001a0: 681b 2bbd 3c02 3494 db4b 6d3e 88ac 81bc
000001b0: 1e6f 3f3e a18d 5c3e 447b 7f91 e011 b3ba
000001c0: 2d7c cc3e ac7d 983f 707f d73b b7a8 6694
000001d0: 47f7 2692 7009 d3bc 2e10 8992 bd84 cf92
000001e0: a09b 3c3d 99d4 dd91 81f4 0a12 1477 2e3e
000001f0: a5de 9892 7052 c03e 57cb 823e 2ed4 053e
00000200: 5220 5094 5b0c 2e91 7eb6 8693 d598 2abf
00000210: 4795 3a91 a08e 533d 6a7b ca91 6ea1 1711
00000220: 3926 2992 d921 6c93 fb8a 083f cc11 9f3e
00000230: b340 4491 f873 e0bc 76dd 4192 bbb1 7491

onnx::Conv_655 f4 [32]
0.06800137 -0.05380662 0.06371144 -0.20343247 -0.67822427 0.53845024 0.20100306 0.089792386
-0.31784284 0.24247415 0.31093773 0.068289295 0.29777554 -0.69265944 -0.31891838 -0.41694438
-0.067263104 -0.14454213 -0.6086821 0.16713557 -0.15816562 0.1929718 -0.35618556 -0.36668712
-0.18770146 0.28933057 -0.0314 -0.39466214 0.24073993 0.40254444 -0.22811002 0.1303599
00000000: 4d44 8b3d 5564 5cbd 257b 823d 9a50 50be
00000010: 1ba0 2dbf e0d7 093f bfd3 4d3e 12e5 b73d
00000020: 4cbc a2be 254b 783e 3b33 9f3e 42db 8b3d
00000030: 0976 983e 2152 31bf 4549 a3be bc79 d5be
00000040: 3dc1 89bd da02 14be 97d2 1bbf 9625 2b3e
00000050: 2bf6 21be 669a 453e f45d b6be 6abe bbbe
00000060: d034 40be 2323 943e 499d 00bd 2811 cabe
00000070: 8784 763e 4e1a ce3e ac95 69be 117d 053e

onnx::Conv_658 f4 [192]
0.018151315 0.07531108 -8.792908e-29 2.1153714e-28 0.092600875 0.071195245 -0.033836626 -5.8857117e-28
0.061716136 0.13208866 0.09912845 -1.5334269e-27 0.041101873 0.11901068 0.10252004 0.06744919
0.08882866 1.9851294e-28 -4.721443e-28 -2.3419612e-27 -5.0941675e-28 0.11141772 -7.634289e-29 -1.0907401e-27
0.07459947 -0.16512483 0.16259769 -7.7345477e-28 -8.391133e-29 0.0032581736 -1.3705529e-26 0.19137263
-1.9533176e-26 0.21832445 -4.3377277e-28 3.3494047e-30 0.06643796 0.072719894 0.085462466 -2.5820648e-29
0.091055244 0.004549812 -0.011364948 -1.984034e-27 -2.3340603e-27 0.1174564 -6.426458e-30 -1.7976368e-26
0.115009196 -5.7088483e-28 -2.5098165e-28 1.2563771e-28 -6.1294983e-28 0.12910685 0.0039321417 9.936072e-27
0.1084417 -6.9703136e-28 -6.8095676e-25 0.10068721 -1.6347582e-27 0.07262189 0.0749232 -6.987625e-29
0.091857255 -1.7371966e-28 -4.6368843e-28 3.7469397e-29 -6.223275e-28 -1.667795e-19 0.046062678 7.262182e-29
0.12176051 0.1198942 -2.056101e-27 0.14636534 0.007699966 0.098684356 5.4258153e-29 0.11936552
-6.728266e-28 0.10581011 0.077472456 -0.017773997 -0.008025726 -5.3747476e-28 -4.0803917e-28 -4.869626e-27
9.230375e-29 -9.454472e-28 0.16050513 0.00664253 -1.9377694e-27 0.084918946 -1.3324189e-27 -6.015783e-28
-0.024538664 0.114761755 0.126655 -0.14184354 -4.81884e-28 0.10473272 -0.2610104 0.16368394
-1.4546409e-26 0.05103643 -0.0002096411 -9.0530714e-29 0.024966052 0.11599688 -4.7675544e-28 -4.5970253e-28
-0.1518648 -5.465305e-28 -4.6378516e-28 9.4798756e-30 0.106659845 -2.2162752e-21 -0.022041883 -4.422403e-28
-4.0481163e-24 1.257772e-28 -5.4326006e-28 -2.2303378e-27 0.083020665 -8.643524e-27 0.07432836 -2.5569543e-27
0.017182391 0.04789856 -5.282057e-28 -2.7527411e-27 -5.4794397e-28 0.095606826 6.4737024e-29 -1.5112598e-26
-4.1781787e-27 -5.785215e-28 -2.0007184e-27 -9.707816e-28 -4.4299848e-27 -7.861268e-29 -0.0686066 0.06934792
-8.469542e-29 -1.6937389e-27 0.010751001 0.10282855 -1.0710678e-28 0.105878554 0.023457993 0.13477375
0.14764838 1.8705356e-27 0.11577128 0.014207562 -5.6326123e-28 -0.06283317 -1.7885692e-27 -4.79035e-28
-1.1041484e-28 -4.6863687e-28 0.11472593 -4.9354016e-27 0.08576357 6.7764635e-30 -4.260602e-27 0.067597024
-0.0007679185 0.05147908 -8.867942e-28 -7.7761256e-28 -4.0553065e-28 -2.4220702e-18 -1.7802545e-27 -4.146301e-28
0.10324874 0.039362263 -1.4349169e-27 -2.0423401e-28 8.335349e-29 -5.6529655e-28 0.092328936 -3.8296489e-28
0.0824285 0.09840778 0.08646469 -3.6386577e-25 0.053787537 -1.2601649e-27 3.0638702e-29 0.03166455
00000000: 11b2 943c b23c 9a3d 3ced de90 dd13 8611
00000010: 87a5 bd3d d0ce 913d 4698 0abd 9186 3a92
00000020: 0fca 7c3d 4042 073e db03 cb3d 2ffb f292
00000030: 705a 283d dfbb f33d 07f6 d13d cd22 8a3d
00000040: cdeb b53d 22a5 7b11 e5a0 1592 9e8c 3993
00000050: cc70 2192 f92e e43d 5e8d c190 add5 ac92
00000060: 9bc7 983d 7c16 29be 0280 263e 1b1e 7592
00000070: 91bd d490 1587 553b a5bb 8794 30f7 433e
00000080: 7c72 c194 7290 5f3e d477 0992 35de 870e
00000090: a010 883d 2bee 943d f206 af3d 1eed 0290
000000a0: 2c7b ba3d 9716 953b 0c34 3abc fe30 1d93
000000b0: 5eec 3893 fb8c f03d 1458 028f 8207 b294
000000c0: f189 eb3d aeeb 3492 1a14 9f91 c543 1f11
000000d0: 6640 4292 9634 043e 32d9 803b dfcd 4414
000000e0: af16 de3d e7e5 5c92 f4be 5297 1935 ce3d
000000f0: d684 0193 c9ba 943d 5671 993d 4728 b190
00000100: a81f bc3d 4137 5c91 e0f2 1292 0ffe 3d10
00000110: 3439 4592 03e6 44a0 38ac 3c3d 421e b810
00000120: 935d f93d 178b f53d afe6 2293 cce0 153e
00000130: ff4f fc3b 061b ca3d 8e8f 8910 e975 f43d
00000140: 2e3a 5592 f9b2 d83d e1a9 9e3d c69a 91bc
00000150: 567e 03bc 2255 2a92 1250 0192 e0e7 c093
00000160: 8f04 ea10 e5cf 9592 755b 243e 95a9 d93b
00000170: a286 1993 fce9 ad3d 5521 d392 d4a5 3e92
00000180: 4f05 c9bc 3608 eb3d d9b1 013e 6f3f 11be
00000190: 13b7 1892 1c7e d63d 28a3 85be c39c 273e
000001a0: 870f 9094 930b 513d 1bd3 5bb9 cb85 e590
000001b0: 9b85 cc3c c68f ed3d ff16 1792 80af 1192
000001c0: 7282 1bbe d233 2d92 b9fa 1292 5446 400f
000001d0: 7a70 da3d ff74 279d 2e91 b4bc cc26 0c92
000001e0: 9a9a 9c98 0971 1f11 7e2a 2c92 a0b4 3093
000001f0: bd06 aa3d e033 2b94 7839 983d 3295 4a93
00000200: 16c2 8c3c 4831 443d 2365 2792 3918 5a93
00000210: 7fa6 2d92 83cd c33d bb20 a410 fdaa 9594
00000220: c483 a593 3d57 3792 6483 1e93 95d3 9992
00000230: 627d af93 8c4e c790 9e81 8cbd 4806 8e3d
00000240: 78ba d690 1b31 0693 f724 303c c697 d23d
00000250: 23c6 0791 dbd6 d83d fa2a c03c 2102 0a3e
00000260: 2331 173e f832 1413 7e19 ed3d d6c6 683c
00000270: 2e81 3292 adae 80bd 7eb4 0d93 f0cf 1792
00000280: aaf7 0b91 5784 1492 6ef5 ea3d eb82 c393
00000290: d0a4 af3d 6971 090f a3c7 a893 4f70 8a3d
000002a0: 234e 49ba badb 523d a584 8c92 6d6f 7692
000002b0: 8e84 0092 9db7 32a2 da0b 0d93 ca66 0392
000002c0: 1374 d33d 533a 213d 255f e392 dd72 8191
000002d0: 8253 d310 4e26 3392 f416 bd3d 9bbb f291
000002e0: 46d0 a83d 058a c93d 6614 b13d d538 e196
000002f0: 5250 5c3d 5dae c792 4f5b 1b10 b0b2 013d

onnx::Conv_661 f4 [192]
0.018331468 -0.011137793 -1.8040482e-28 -3.014861e-28 -0.009251211 -0.14230466 -0.035275526 -2.3415302e-28
0.17950743 -0.0054470897 -0.03548805 -1.120042e-27 -0.023896355 -0.17011447 0.07708573 -0.2627325
0.051503573 -3.7927719e-28 1.9606582e-28 -2.2467485e-27 -4.04777e-28 0.05902085 -2.5656803e-28 -1.0084157e-27
-0.1612983 -0.32665858 -0.00892633 -7.380572e-29 -2.2873538e-28 0.19855258 -1.520403e-27 -0.06221846
-1.1720726e-26 0.8206818 -1.8926318e-28 -1.8341167e-28 -0.045371667 -0.068686135 -0.03164816 1.5917896e-28
0.2826098 0.017842332 0.11258054 -4.38419e-28 -7.383899e-28 0.03388412 -1.6795917e-28 -2.4568975e-27
-0.18025626 -2.4017093e-28 -1.989852e-28 -1.8694942e-28 -9.0243973e-29 0.041180268 -0.081848934 9.950423e-27
-0.22757909 8.251899e-28 2.3251863e-25 0.008225601 1.862359e-28 0.020854281 -0.0030640247 -1.8405125e-28
0.064278916 -5.8444598e-28 -3.5621187e-28 -2.6773322e-28 8.208587e-29 -6.151459e-20 -0.07282464 2.4289824e-28
0.39945763 0.0024064686 -2.4509406e-27 0.03517385 -0.23711467 -0.0411655 -4.829516e-28 0.0019361111
-3.7623836e-28 0.03520171 -0.03233496 0.25245753 -0.017870761 -2.3939668e-28 -3.439321e-28 -2.7695743e-27
-1.955612e-28 -2.658914e-28 0.47869927 -0.013797138 -8.907723e-28 -0.0033320393 3.2105409e-28 -3.5004968e-28
-0.007615475 -0.034713924 0.048532944 -0.6189726 -1.9833283e-28 -0.07182638 0.25187042 0.46116737
2.604975e-27 0.029539531 -0.0002150471 -6.003723e-28 0.09022246 -0.006067361 -1.0192671e-28 1.1772614e-28
-0.32442293 -4.293997e-28 -2.1229892e-28 -1.5363729e-28 0.03191662 1.6418418e-21 0.018017571 -1.5439109e-28
-3.4805537e-24 -2.7870606e-28 1.1830107e-28 1.657442e-27 0.35104823 -3.2107274e-27 -0.019962257 1.8929268e-27
0.24865167 -0.009825261 -1.2489866e-28 -1.5808277e-27 -1.2336612e-28 0.016830187 -1.7150679e-28 -8.145516e-27
2.4287475e-27 1.3161185e-28 -5.440446e-28 -7.848124e-28 -1.6849268e-27 -1.5674661e-28 -0.011741375 -0.0033612698
-1.6882498e-28 -1.1395001e-27 0.015938055 0.036349084 -3.3188179e-28 0.12210971 -0.116482355 -0.13609949
0.005929022 -1.0655988e-27 -0.0034255767 -0.019891093 -3.8053027e-28 -0.13793132 2.5915263e-28 -3.4662247e-28
-3.6265234e-28 -4.8290055e-28 -0.05753184 -1.031905e-27 -0.34944728 -3.0332884e-28 -3.33695e-27 -0.023649886
0.0992381 -0.052311003 1.352009e-28 -9.840373e-28 -1.5028787e-28 -1.3856516e-18 -6.3342926e-28 -7.7507883e-29
0.112918265 0.19926617 8.418002e-28 -4.7678197e-28 -2.9805716e-28 -1.7805888e-28 -0.050971884 -2.564346e-28
0.25758106 -0.061781883 0.56564176 -1.2627203e-25 -0.058275066 4.0710355e-28 -2.6853424e-28 -0.06434527
00000000: e02b 963c 4a7b 36bc b6b0 6491 eb16 bf91
00000010: 6492 17bc 50b8 11be 127d 10bd 8069 9491
00000020: ccd0 373e 807d b2bb eb5b 11bd 4d7a b192
00000030: 4ac2 c3bc 7d32 2ebe 20df 9d3d e084 86be
00000040: 69f5 523d 3e65 f091 ff8a 7811 7901 3293
00000050: 6947 0092 d9bf 713d 8b9e a291 33ca 9f92
00000060: 622b 25be cb3f a7be be3f 12bc a71e bb90
00000070: 70fa 9091 5e51 4b3e dfea f092 c9d8 7ebd
00000080: 2427 6894 3418 523f 6aeb 6f91 7d80 6891
00000090: a4d7 39bd 51ab 8cbd 80a1 01bd 87c8 4911
000000a0: 3bb2 903e 152a 923c a090 e63d c6f0 0a92
000000b0: 4e01 6a92 13ca 0a3d dee9 5491 cda7 4293
000000c0: 1995 38be f639 9891 643e 7c91 8efc 6c91
000000d0: b0cb e490 a4ac 283d 6aa0 a7bd a416 4514
000000e0: 7e0a 69be aec1 8212 0cec 8f16 acc4 063c
000000f0: 0115 6c11 99d6 aa3c cecd 48bb 0c50 6991
00000100: aaa4 833d e437 3992 aec6 e191 33b2 a991
00000110: c71c d010 4a3f 919f 1625 95bd 7ef4 9911
00000120: b685 cc3e d8b5 1d3b fb2e 4293 7412 103d
00000130: 30ce 72be 289d 28bd b00d 1992 1cc5 fd3a
00000140: 2a78 ee91 ab2f 103d aa71 04bd 1d42 813e
00000150: b465 92bc 55bc 9791 2cfe d991 a46d 5b93
00000160: 3de7 7791 5987 a891 1218 f53e 640d 62bc
00000170: 0426 8d92 585e 5abb 017e cb11 cfde dd91
00000180: 3c8b f9bb 3030 0ebd 7bca 463d fd74 1ebf
00000190: af6a 7b91 b619 93bd 29f5 803e 211e ec3e
000001a0: 2c63 4e13 e3fc f13c 447e 61b9 fd43 3e92
000001b0: 8ec6 b83d b7d0 c6bb 1c35 0191 513c 1511
000001c0: c31a a6be 0b15 0892 788f 8691 27c2 4291
000001d0: 00bb 023d ae1b f81c 9699 933c c6b6 4391
000001e0: bca5 8698 a5a6 b091 e4f6 1511 eb50 0313
000001f0: 98bc b33e 4a61 7e93 e387 a3bc 1ef9 1513
00000200: 8b9e 7e3e 22fa 20bc ef53 1e91 fd7d fa92
00000210: 9862 1c91 76df 893c 2369 5991 ac56 2194
00000220: da6c 4013 7dd6 2611 246a 2c92 8cb7 7892
00000230: 607e 0593 2fb3 4691 e55e 40bc c048 5cbb
00000240: d702 5691 9e8f b492 8690 823c c7e2 143d
00000250: e65a d291 a814 fa3d 4d8e eebd aa5d 0bbe
00000260: 3e48 c23b d3d9 a892 a47f 60bb a5f2 a2bc
00000270: 9130 f191 de3d 0dbe eb41 a411 b6b2 db91
00000280: b5db e591 8c09 1992 82a6 6bbd 0a83 a392
00000290: c1ea b2be eb41 c091 b230 8493 68bd c1bc
000002a0: 583d cb3d 1044 56bd 3363 2b11 4ced 9b92
000002b0: 3483 3e91 707c cca1 e3bd 4892 7e81 c490
000002c0: b141 e73d 6e0c 4c3e 7963 8512 2619 1792
000002d0: 8aea bc91 69b7 6191 e5c7 50bd e588 a291
000002e0: aae1 833e 000f 7dbd e6cd 103f 3451 1c96
000002f0: d6b1 6ebd 2a04 0112 2c34 aa91 74c7 83bd

onnx::Conv_664 f4 [32]
0.1254005 -0.0213317 0.31225368 0.100989394 -0.068641014 -0.07649262 0.1095785 -0.04608626
0.23864459 -0.094663516 0.027399315 0.053391386 -0.4002986 0.03597125 -0.033407748 -0.43029782
-0.07683787 -0.0075023007 -0.12699685 0.0001668226 -0.38390163 0.09496205 -0.09218092 0.18742129
0.07783778 -0.009632078 0.01565902 0.041489474 0.022794574 0.14936 -0.26586854 0.5493357
00000000: fd68 003e d1bf aebc b7df 9f3e 87d3 ce3d
00000010: a993 8cbd 2aa8 9cbd b16a e03d f2c4 3cbd
00000020: 3f5f 743e f2de c1bd 8774 e03c edb0 5a3d
00000030: f0f3 ccbe 9756 133d 90d6 08bd ff4f dcbe
00000040: 2c5d 9dbd dcd5 f5bb 760b 02be 1aed 2e39
00000050: c18e c4be 777b c23d 5ac9 bcbd 5eeb 3f3e
00000060: 6a69 9f3d ddcf 1dbc 5847 803c def0 293d
00000070: b0bb ba3c d4f1 183e ec1f 88be 44a1 0c3f

onnx::Conv_667 f4 [192]
-8.228539e-25 -6.2129696e-28 -6.3726037e-29 -0.06446608 -7.453144e-28 -5.840417e-28 -4.689117e-28 -6.210076e-27
-0.07497993 0.08993088 -4.957905e-28 -7.358443e-26 -5.08138e-27 -0.14679901 -0.030866168 0.08180461
0.098836444 0.14070193 0.10512372 -0.109966196 0.12510613 -0.049820613 -0.029446498 -0.0051758457
0.00253281 -5.4927102e-27 -5.705226e-28 0.017196497 -1.1340433e-23 -4.3803197e-28 0.120104544 -6.354048e-28
0.052200243 1.6635221e-28 -5.276264e-28 -8.0911414e-27 -0.18965904 -9.069735e-28 -0.18460497 -5.1037313e-27
0.11687242 6.4913103e-28 -0.03198681 0.12307904 0.017777577 -4.3995826e-14 -5.595511e-28 1.7257e-28
0.08018117 -1.0851978e-26 -1.1940856e-27 0.09238316 -2.2945926e-27 1.0933289e-27 -0.03406892 -6.330987e-28
-4.3322436e-28 0.042882986 0.1244386 0.06350299 -5.8109644e-25 0.104972266 -1.6148442e-17 -6.597194e-30
-2.2132835e-28 -4.4116483e-28 -4.7936396e-29 0.0061919573 -3.9691425e-27 0.03361417 -0.14568567 0.0942644
0.13191673 -1.5521545e-14 -1.9013098e-27 -1.8405928e-28 -7.9096633e-28 0.077623755 -0.019317288 -2.256379e-24
7.6042106e-29 -1.5033823e-29 -5.5600726e-28 -5.1267308e-27 0.119001925 0.08577582 0.09076549 -1.18664124e-26
0.087111466 0.12151515 0.10978115 0.10021856 0.15242179 -5.4047006e-28 -5.4499334e-29 -0.025016846
0.12324838 0.07757648 -5.527491e-28 -4.580277e-28 0.035726663 0.081592485 0.024614483 -4.1392587e-28
-5.3435547e-28 0.09632264 -9.427111e-28 0.11891968 -5.4132864e-28 -1.6338586e-27 0.084527 -4.9374296e-28
-4.9842037e-28 2.64116e-29 -0.0020062064 1.1291854e-28 -1.3829837e-28 -5.3199814e-28 -8.784415e-28 0.10504509
-3.8487478e-28 -0.04220629 -6.1997515e-28 -8.750901e-28 0.111780666 0.028282182 0.083639376 0.071713924
0.077612445 3.8433083e-28 -5.644298e-28 -5.121261e-28 0.026631368 0.032470852 0.08082345 0.0018870673
-2.2591404e-28 -0.19396137 -6.333661e-29 0.13367526 -9.965454e-28 0.12843259 -0.037308622 -9.694046e-28
0.1276457 -1.0451762e-27 0.1487324 -3.5687644e-27 0.09197111 -1.0626471e-27 -1.3013291e-27 -1.4941197e-28
-8.8115925e-27 3.881708e-29 0.09279377 -9.073821e-28 0.0353575 -2.1993882e-28 0.12039317 0.059075586
0.05080794 0.11344346 -7.3978027e-28 -1.9379476e-27 0.014792542 -1.6308447e-26 -6.0938034e-27 0.034334596
-0.018335864 0.077204704 -7.94897e-28 0.09555576 -1.602641e-27 0.1421069 -0.11720453 -5.4649976e-28
-6.7693404e-28 -6.8895103e-28 -3.6616327e-28 0.086227305 0.08213923 0.016481327 0.041979738 -7.452884e-28
-0.1956179 -0.100013666 0.063276276 -0.124769725 -3.2214194e-27 -0.10225558 -5.435183e-28 -5.1924463e-28
00000000: 34a9 7e97 99e5 4492 9090 a190 cb06 84bd
00000010: 1633 6c92 1817 3992 a39a 1492 a701 f693
00000020: 148f 99bd ae2d b83d 4e1f 1d92 ac2f b695
00000030: 514b c993 7b52 16be 0cdb fcbc 2d89 a73d
00000040: c36a ca3d 2b14 103e 1b4b d73d f535 e1bd
00000050: d21b 003e b310 4cbd c839 f1bc 249a a9bb
00000060: 80fd 253b b396 d993 4bce 3492 abdf 8c3c
00000070: 1b5b 5b99 60d1 0a92 5ff9 f53d 295e 4992
00000080: eccf 553d 61e0 5211 2436 2792 f642 2094
00000090: fb35 42be 37b7 8f92 1609 3dbe fc2d ca93
000000a0: cf5a ef3d c4b7 4d12 9a04 03bd dd10 fc3d
000000b0: 48a2 913c bc23 46a9 2e54 3192 2bc2 5a11
000000c0: 0636 a43d 11f2 5694 de35 bd92 6233 bd3d
000000d0: decb 3593 b03e ad12 da8b 0bbd 12a3 4892
000000e0: 564b 0992 12a6 2f3d aad9 fe3d db0d 823d
000000f0: 34d7 3397 b3fb d63d 6ef1 94a3 97ce 058f
00000100: 9448 8c91 8bcf 0b92 0011 7390 e7e5 ca3b
00000110: e33b 9d93 03af 093d a02e 15be b20d c13d
00000120: 2e15 073e 3fce 8ba8 25a3 1693 a752 6991
00000130: d0aa 7a92 34f9 9e3d 4a3f 9ebc 3194 2e98
00000140: 26ca c010 0976 988f ab34 3092 3a17 cb93
00000150: 48b7 f33d 3cab af3d 42e3 b93d dc09 6b94
00000160: 7f67 b23d efdc f83d f1d4 e03d 633f cd3d
00000170: 7514 1c3e 2448 2b92 172c 8a90 21f0 ccbc
00000180: a669 fc3d 6be0 9e3d 562c 2f92 9f27 1192
00000190: 1f56 123d f619 a73d 50a4 c93c a82d 0392
000001a0: 1158 2992 ce44 c53d e860 9592 298c f33d
000001b0: cc8d 2b92 9772 0193 7e1c ad3d 3079 1c92
000001c0: aaf4 1d92 38ec 0510 8f7a 03bb 2924 0f11
000001d0: 6350 2f91 d198 2892 d231 8b92 e121 d73d
000001e0: 81f1 f391 81e0 2cbd 5c7a 4492 dfa9 8a92
000001f0: 43ed e43d 09b0 e73c 1f4b ab3d c0de 923d
00000200: 46f3 9e3d 3e99 f311 fcdf 3292 9b4c 2292
00000210: 072a da3c 2800 053d c486 a53d 7957 f73a
00000220: a630 8f91 cf9d 46be cf93 a090 2be2 083e
00000230: afe8 9d92 d583 033e edd0 18bd b99b 9992
00000240: 8eb5 023e 629d a592 4e4d 183e 925f 8d93
00000250: 595b bc3d 1662 a892 2e34 ce92 f566 3d91
00000260: 1588 2e94 73d3 4410 a90a be3d cac7 8f92
00000270: 07d3 103d 1d67 8b91 b290 f63d 3ef9 713d
00000280: fd1b 503d 0b55 e83d 1b72 6a92 3f8a 1993
00000290: 6b5c 723c d382 a194 8266 f193 6fa2 0c3d
000002a0: 1835 96bc 801d 9e3d b5e9 7b92 bdb2 c33d
000002b0: d8f2 fd92 7984 113e ee08 f0bd 5431 2d92
000002c0: 6a87 5692 5956 5a92 6315 e891 f197 b03d
000002d0: 9d38 a83d d903 873c f2f2 2b3d fa30 6c92
000002e0: 0f50 48be f7d3 ccbd fe96 813d 4587 ffbd
000002f0: 263a 7f93 606b d1bd 713f 2c92 218e 2492

onnx::Conv_670 f4 [192]
-2.8790475e-25 -2.2661426e-28 -1.7477132e-28 0.055473432 -4.87903e-28 2.9451345e-28 -2.2054734e-28 -3.2791376e-27
-0.043432914 0.0065410547 5.7364684e-29 -4.0532108e-26 -2.655268e-27 -0.019903975 -0.0843258 -0.021636887
-0.09563509 -0.022166222 0.27193516 -0.17580861 0.045767967 -0.22226042 0.0024450338 -0.11891481
0.14199086 -7.917402e-28 -1.4249915e-28 -0.13097082 1.16138934e-23 -1.7827502e-28 -0.0566149 2.0756096e-28
-0.14760095 -1.9750419e-28 -3.3004568e-28 -3.3741965e-27 0.018177107 1.6958131e-28 -0.0045400173 3.3423855e-28
-0.14485916 -7.638417e-28 -0.18762569 0.55364865 -0.03552526 -1.604025e-14 -2.5501616e-28 -2.4195696e-28
-0.001026867 -8.189195e-27 -7.4699865e-28 0.088598065 -6.3095266e-28 4.4349135e-28 0.015764385 -4.226279e-28
-2.195328e-28 -0.13859527 -0.118984684 -0.36447692 -2.8953335e-25 0.021562971 -2.1772436e-18 -2.7608357e-28
-2.7002474e-28 -3.0135972e-28 -2.3669482e-28 -0.037826084 -9.752529e-28 -0.059393138 -0.2454167 -0.5622957
-0.17250843 -8.792081e-15 6.444908e-28 -1.8013482e-28 1.3603461e-28 -0.013697696 0.14456476 -1.828091e-24
4.7086276e-28 -1.9095272e-28 -3.5006069e-28 -3.807226e-27 -0.08514269 -0.07775956 -0.0783232 -6.118695e-27
-0.086446956 -0.053998597 0.018746292 -0.15404156 -0.005274795 -1.8614703e-28 -1.7384345e-28 -0.33288258
-0.04290892 -0.04882873 -2.8007254e-28 -2.8645355e-28 -0.067719914 -0.22871636 -0.0285042 -2.4432855e-28
-1.4682228e-28 -0.012575565 -5.1811054e-28 0.18123783 -1.6865202e-28 3.0623042e-28 -0.010685364 -5.875303e-28
-3.4108227e-28 -2.2059996e-28 -0.010203902 -4.243691e-28 -1.8998472e-28 -2.2095763e-28 -2.6479413e-28 -0.07435281
-1.93261e-28 -0.07678228 -3.3746402e-28 -4.90092e-28 0.08257223 -0.121993355 -0.13198887 -0.0063000526
0.2617078 -9.676884e-28 -3.0057575e-28 -3.9097425e-28 -0.11711839 -0.16978028 -0.39439115 -0.005938735
-1.6188679e-28 -0.16589977 1.8811369e-28 0.014932478 -5.2154703e-28 -0.04678663 -0.30883166 3.86561e-28
-0.2215594 -1.1348838e-28 -0.0350839 -3.200092e-27 -0.08024598 -1.1645008e-28 -5.6871363e-28 -2.8645971e-28
4.1856027e-27 -2.1298484e-28 -0.03300553 -2.6465123e-28 -0.14513874 -3.2085711e-28 -0.030370848 -0.002870595
-0.17004187 0.30157667 -2.8892818e-28 -1.5069e-27 -0.13754746 -1.1155086e-26 -3.139068e-27 -0.10003093
0.023335239 -0.0927514 -7.687286e-28 -0.17307657 2.3464079e-28 -0.01015226 0.038953587 -3.2752863e-28
-4.4248255e-28 2.7458108e-28 -7.4696885e-28 -0.40477738 -0.10965733 -0.12304738 -0.016804446 -3.9305394e-28
0.050010458 -0.0996344 -0.033818044 -0.09621936 -8.93538e-28 -0.05283317 -2.1566674e-28 -2.627038e-28
00000000: 5434 b296 44a2 8f91 898c 5d91 1c38 633d
00000010: 659f 1a92 8aab ba11 dac9 8b91 68e6 8193
00000020: b6e6 31bd 5856 d63b cf6f 9110 8db4 4895
00000030: 3c5f 5293 a90d a3bc 01b3 acbd d73f b1bc
00000040: 54dc c3bd f095 b5bc 163b 8b3e 2c07 34be
00000050: 3177 3b3d 3c98 63be dc3c 203b 9c89 f3bd
00000060: 0d66 113e 99e9 7a92 9ea3 3491 371d 06be
00000070: 37a5 6019 8dfd 6191 06e5 67bd b18e 8311
00000080: b424 17be c65d 7a91 f930 d191 6baa 8593
00000090: 28e8 943c 48f8 5611 6dc4 94bb 4ed9 d311
000000a0: f655 14be 3312 7292 f320 40be ebbb 0d3f
000000b0: ef82 11bd 4c7a 90a8 bda2 a191 c35b 9991
000000c0: f097 86ba 2734 2294 bbbb 6c92 e772 b53d
000000d0: f6f4 4792 4b8c 0c12 5024 813c a6ef 0592
000000e0: 3c25 8b91 ebeb 0dbe 3eae f3bd b89c babe
000000f0: 6436 b396 d4a4 b03c f8a6 20a2 1ffd ae91
00000100: 0526 ab91 6902 bf91 ee05 9691 86ef 1abd
00000110: f588 9a92 3846 73bd 844e 7bbe 9cf2 0fbf
00000120: 0da6 30be 5162 1ea8 4e3f 4c12 1759 6491
00000130: c171 2c11 4d6c 60bc c908 143e 1371 0d98
00000140: ed38 1512 b30f 7291 98e0 dd91 dcd1 9693
00000150: 4a5f aebd 6740 9fbd ea67 a0bd f062 f293
00000160: 1a0b b1bd a22d 5dbd d391 993c 12bd 1dbe
00000170: 30d8 acbb 2af8 6b91 6d5f 5c91 966f aabe
00000180: 44c1 2fbd a200 48bd 5e84 b191 bf8f b591
00000190: bdb0 8abd 9f34 6abe a481 e9bc 93dc 9a91
000001a0: 8e1e 3a91 be09 4ebc 1f32 2492 6996 393e
000001b0: b6ca 5591 ba18 c211 aa11 2fbc 1f32 3a92
000001c0: c32f d891 64d2 8b91 442e 27bc e97c 0692
000001d0: 91d5 7091 6d0c 8c91 4ed5 a791 4946 98bd
000001e0: c8fc 7491 0740 9dbd abe4 d591 fd50 1b92
000001f0: a11b a93d a7d7 f9bd 1728 07be ac70 cebb
00000200: 91fe 853e 1b56 9992 3483 be91 33cf f791
00000210: c4db efbd e2da 2dbe a3ed c9be b899 c2bb
00000220: 4437 4d91 a1e1 29be 6276 6e11 5aa7 743c
00000230: ec48 2592 56a3 3fbd 2f1f 9ebe 1c03 f511
00000240: 78e0 62be 16dd 0f91 23b4 0fbd 9489 7d93
00000250: 0158 a4bd 369e 1391 883b 3492 bf90 b591
00000260: 0ecf a513 c4fe 8691 ce30 07bd 1ebe a791
00000270: 409f 14be 0b5e cb91 49cc f8bc 9820 3cbb
00000280: 751f 2ebe 4268 9a3e 4721 b791 20c7 ee92
00000290: 3ed9 0cbe 01f3 5c94 ddb3 7893 04dd ccbd
000002a0: 8b29 bf3c 72f4 bdbd ac9e 7392 fc3a 31be
000002b0: a5b8 9411 aa55 26bc cc8d 1f3d 8f98 cf91
000002c0: 733a 0c92 5409 ae11 50b9 6c92 fb3e cfbe
000002d0: 0694 e0bd 4400 fcbd 7aa9 89bc a620 f991
000002e0: c4d7 4c3d 1f0d ccbd ca84 0abd a80e c5bd
000002f0: 3596 8d92 9867 58bd eeb1 8891 2182 a691

onnx::Conv_673 f4 [32]
0.26195896 0.035023324 -0.17758381 -0.010237857 0.0048918272 -0.08647424 0.21952456 -0.09263647
-0.22526124 0.07817201 -0.056028433 -0.10437615 0.05752642 -0.26799008 -0.107696734 -0.19017373
-0.020762488 0.0012637674 0.13945816 0.01596552 0.20211951 -0.24546282 -0.009001969 -0.036491103
-0.012347611 0.17608011 0.16095915 -0.053743597 -0.0060800044 -0.06623916 -0.0671744 0.19630031
00000000: 7c1f 863e 9e74 0f3d 88d8 35be afbc 27bc
00000010: 9f4b a03b 6819 b1bd 0ccb 603e 31b8 bdbd
00000020: e2aa 66be a618 a03d 127e 65bd 2ac3 d5bd
00000030: d3a0 6b3d ff35 89be 1b90 dcbd e7bc 42be
00000040: 1816 aabc ffa4 a53a 1fce 0e3e 1fca 823c
00000050: 6bf8 4e3e 9b5a 7bbe ff7c 13bc b277 15bd
00000060: a24d 4abc 584e 343e 7ad2 243e 3f22 5cbd
00000070: c63a c7bb 66a8 87bd bb92 89bd f302 493e

onnx::Conv_676 f4 [192]
-3.915608e-28 0.035133336 9.0733226e-29 -4.2410793e-28 0.04299627 -8.66518e-28 -0.00746154 0.11843608
-0.06532127 0.037087187 0.07206494 0.0889499 4.7398117e-29 0.0004377664 0.089201234 0.038198687
-0.17184334 0.09071722 -1.7520765e-29 -0.13765782 -7.732446e-28 -1.2459382e-27 -2.5830804e-28 0.093270786
0.080162674 0.04701156 0.16214633 0.028430687 0.10171665 0.2053791 -4.992249e-28 -1.0714213e-27
0.009385652 0.06808276 -4.2349105e-28 0.16919193 0.13362418 0.06141876 -0.18095276 3.4012347e-28
0.121841595 -6.275991e-28 -0.055820048 -5.9165295e-28 0.10573196 -4.312699e-28 0.10393478 -1.5038306e-25
-4.3496386e-28 -0.010357434 -3.6517107e-28 0.17891723 0.09283102 0.043681636 -4.128951e-28 -6.919378e-28
0.18536428 0.016593829 -5.0645684e-28 -2.709603e-29 -0.20274489 0.06616322 -4.8929006e-28 -8.372655e-28
-4.3476963e-29 -0.17887664 -1.5010895e-28 0.14971562 0.057466585 -1.8022778e-28 0.10431856 -1.0534321e-27
0.07475371 -0.18725891 -3.9277882e-29 0.13201876 -6.157217e-28 -7.66769e-28 -8.726487e-28 -4.7270073e-28
-0.057252567 -7.766712e-28 0.043289 -4.9100174e-27 2.030936e-28 -0.016257357 -1.9849023e-27 0.014376223
-0.20192304 0.038437538 0.12724319 0.0148793105 0.09933679 0.06633707 0.0651592 -0.017706519
-0.17003913 -0.17710856 0.15391394 -0.04799247 0.06724948 -5.36319e-29 1.1151282e-28 0.07456192
-0.014377871 0.10628153 -0.17790823 -4.4516234e-28 0.06056308 0.14468938 -0.025467694 -8.562953e-28
9.092133e-31 0.06817421 0.006120823 0.149359 0.105377145 0.17552637 0.05893696 0.12121778
0.098263524 -6.964861e-28 0.0650674 -8.643052e-28 -9.177029e-29 0.00427715 0.09025997 0.09117405
-1.4170746e-28 0.10936157 -0.051476195 0.1196774 0.0931489 0.090853564 0.14470053 0.16712597
0.046671014 0.10914688 0.04659254 0.13806716 -0.046296142 -0.065478705 0.10058259 0.027353913
0.11046731 0.14486851 0.08069859 -0.1958537 0.07960764 0.11482814 0.0715534 1.5754298e-28
-5.0193248e-30 -0.060565118 -4.1472936e-29 0.17880023 -0.15790768 0.06448409 -8.90162e-28 3.5614673e-29
0.11341563 0.1004001 -5.2206953e-29 -0.066026956 0.104753934 -1.1535515e-27 -5.022519e-28 0.11037399
0.13466008 -0.029383682 0.10533237 0.13171066 -8.223796e-28 4.415986e-29 -0.012415678 0.18437834
1.3050538e-29 0.08921378 -4.8496953e-28 0.10216196 -0.084834605 -4.655223e-28 0.0011027154 0.136283
-6.4529202e-28 -0.13843112 0.074820444 -1.5747022e-29 0.09085761 0.20677264 0.17027302 -6.011347e-32
00000000: 5f2e f891 f9e7 0f3d 3b09 e610 b967 0692
00000010: db1c 303d 254e 8992 ef7f f4bb 9e8e f23d
00000020: 28c7 85bd bce8 173d c996 933d 5d2b b63d
00000030: 4656 7010 0384 e539 23af b63d 3a76 1c3d
00000040: b3f7 2fbe f3c9 b93d 82ae b18f 2cf6 0cbe
00000050: 0e0d 7592 426d c592 e0b8 a391 c104 bf3d
00000060: 542c a43d 328f 403d b009 263e 79e7 e83c
00000070: d250 d03d e64e 523e f035 1e92 03c6 a992
00000080: 47c6 193c f96e 8b3d ad35 0692 a640 2d3e
00000090: c7d4 083e 3d92 7b3d ae4b 39be 3094 d711
000000a0: 1688 f93d e3e4 4692 90a3 64bd 9780 3b92
000000b0: ff89 d83d c5ac 0892 c2db d43d 4b2a 3a96
000000c0: 76d8 0992 3ab2 29bc 6574 e791 1436 373e
000000d0: 311e be3d 84eb 323d 08da 0292 aa48 5b92
000000e0: 22d0 3d3e c8ef 873c a980 2092 a864 0990
000000f0: 5b9c 4fbe 9580 873d ed0f 1b92 86ab 8492
00000100: 5374 5c90 702b 37be 2449 3e91 0d4f 193e
00000110: 1562 6b3d 4277 6491 f8a4 d53d 48ec a692
00000120: 7918 993d cdc0 3fbe 9b29 4790 ed2f 073e
00000130: 4721 4392 b1ff 7292 d646 8a92 0ace 1592
00000140: ab81 6abd 0e23 7692 ce4f 313d 7e81 c293
00000150: d2b9 8011 262e 85bc 9a42 1d93 408a 6b3c
00000160: eac4 4ebe ae70 1d3d 0a4c 023e 5ac8 733c
00000170: 1671 cb3d bbdb 873d 3072 853d 430d 91bc
00000180: bd1e 2ebe f25b 35be 9e9b 1d3e c193 44bd
00000190: 18ba 893d 18f9 8790 fb5b 0d11 ebb3 983d
000001a0: 2991 6bbc 21aa d93d 932d 36be dc13 0d92
000001b0: fe10 783d 7429 143e a0a1 d0bc 77af 8792
000001c0: 3e87 930d ec9e 8b3d 2f91 c83b 91f1 183e
000001d0: f9cf d73d 2fbd 333e e267 713d 0741 f83d
000001e0: 633e c93d aab9 5c92 0f42 853d 62f4 8892
000001f0: 53aa e890 5627 8c3b 38da b83d 76b9 ba3d
00000200: b3a2 3391 f5f8 df3d b4d8 52bd 6d19 f53d
00000210: dac4 be3d 6f11 ba3d 602c 143e 1223 2b3e
00000220: 1b2a 3f3d 6688 df3d d2d7 3e3d 7a61 0d3e
00000230: 06a1 3dbd b319 86bd 3ffe cd3d 5015 e03c
00000240: af3c e23d 6958 143e 4d45 a53d df8d 48be
00000250: 5509 a33d 042b eb3d 978a 923d 9fb5 4711
00000260: a69b cb8e 2113 78bd f34a 5290 6817 373e
00000270: 8db2 21be 3c10 843d 430d 8d92 7d96 3410
00000280: 7446 e83d 919e cd3d 405c 8490 2439 87bd
00000290: 3b89 d63d 9cc9 b692 842b 1f92 c20b e23d
000002a0: 55e4 093e 0cb6 f0bc 7fb8 d73d 29df 063e
000002b0: ae4f 8292 c7ea 5f10 216b 4bbc adcd 3c3e
000002c0: 2259 840f b7b5 b63d 67b1 1992 4a3a d13d
000002d0: c4bd adbd a887 1392 fd88 903a c58d 0b3e
000002e0: 4f80 4c92 e3c0 0dbe 763b 993d 9bb1 9f8f
000002f0: 8e13 ba3d 35bc 533e 0d5c 2e3e 4110 9c8b
